…
============================================================

TensorFlow version: 2.21.0
GPU Available: []

Loading dataset...
Found 5565 files belonging to 2 classes.
Found 1189 files belonging to 2 classes.
Classes: ['biodegradable', 'non-biodegradable']
Training images: 5568
Validation images: 1200

Creating MobileNetV2 model...

Model Summary:
Model: "functional_1"
┏━━━━━━━━━━━━━━━━━━━━━━━━━━━━━━━━━┳━━━━━━━━━━━━━━━━━━━━━━━━┳━━━━━━━━━━━━━━━┓
┃ Layer (type)                    ┃ Output Shape           ┃       Param # ┃
┡━━━━━━━━━━━━━━━━━━━━━━━━━━━━━━━━━╇━━━━━━━━━━━━━━━━━━━━━━━━╇━━━━━━━━━━━━━━━┩
│ input_layer_1 (InputLayer)      │ (None, 160, 160, 3)    │             0 │
├─────────────────────────────────┼────────────────────────┼───────────────┤
│ data_augmentation (Sequential)  │ (None, 160, 160, 3)    │             0 │
├─────────────────────────────────┼────────────────────────┼───────────────┤
│ true_divide (TrueDivide)        │ (None, 160, 160, 3)    │             0 │
├─────────────────────────────────┼────────────────────────┼───────────────┤
│ subtract (Subtract)             │ (None, 160, 160, 3)    │             0 │
├─────────────────────────────────┼────────────────────────┼───────────────┤
│ mobilenetv2_1.00_160            │ (None, 1280)           │     2,257,984 │
│ (Functional)                    │                        │               │
├─────────────────────────────────┼────────────────────────┼───────────────┤
│ dropout (Dropout)               │ (None, 1280)           │             0 │
├─────────────────────────────────┼────────────────────────┼───────────────┤
│ dense (Dense)                   │ (None, 128)            │       163,968 │
├─────────────────────────────────┼────────────────────────┼───────────────┤
│ dropout_1 (Dropout)             │ (None, 128)            │             0 │
├─────────────────────────────────┼────────────────────────┼───────────────┤
│ dense_1 (Dense)                 │ (None, 1)              │           129 │
└─────────────────────────────────┴────────────────────────┴───────────────┘
 Total params: 2,422,081 (9.24 MB)
 Trainable params: 164,097 (641.00 KB)
 Non-trainable params: 2,257,984 (8.61 MB)

============================================================
STARTING TRAINING
============================================================
Epoch 1/15
W0000 00:00:1774935437.117160  503430 cpu_allocator_impl.cc:82] Allocation of 59885568 exceeds 10% of free system memory.
…
